{"Bidirectional": {"class_name": "Bidirectional", "config": {"layer": {"class_name": "LSTM", "config": {"activity_regularizer": null, "unit_forget_bias": true, "bias_initializer": {"class_name": "Zeros", "config": {}}, "use_bias": true, "kernel_constraint": null, "unroll": false, "recurrent_dropout": 0.0, "implementation": 1, "recurrent_initializer": {"class_name": "Orthogonal", "config": {"seed": null, "gain": 1.0}}, "bias_regularizer": null, "trainable": true, "activation": "tanh", "name": "lstm_1", "recurrent_regularizer": null, "kernel_initializer": {"class_name": "VarianceScaling", "config": {"scale": 1.0, "mode": "fan_avg", "seed": null, "distribution": "uniform"}}, "return_state": false, "bias_constraint": null, "dropout": 0.0, "go_backwards": false, "stateful": false, "kernel_regularizer": null, "units": 128, "recurrent_constraint": null, "return_sequences": false, "recurrent_activation": "hard_sigmoid"}}, "trainable": true, "merge_mode": "concat", "name": "bidirectional_1"}}, "output_layers": [["dense_1", 0, 0]], "Dropout": {"class_name": "Dropout", "config": {"rate": 0.2, "seed": null, "noise_shape": null, "trainable": true, "name": "dropout_1"}}, "Dense": {"class_name": "Dense", "config": {"activity_regularizer": null, "bias_initializer": {"class_name": "Zeros", "config": {}}, "bias_regularizer": null, "use_bias": true, "kernel_initializer": {"class_name": "VarianceScaling", "config": {"scale": 1.0, "mode": "fan_avg", "seed": null, "distribution": "uniform"}}, "kernel_constraint": null, "bias_constraint": null, "kernel_regularizer": null, "units": 5, "trainable": true, "activation": "softmax", "name": "dense_1"}}, "Concatenate": {"class_name": "Concatenate", "config": {"axis": -1, "trainable": true, "name": "concatenate_1"}}, "Conv1D": {"class_name": "Conv1D", "config": {"data_format": "channels_last", "activity_regularizer": null, "bias_initializer": {"class_name": "Zeros", "config": {}}, "filters": 100, "kernel_regularizer": null, "use_bias": true, "kernel_initializer": {"class_name": "VarianceScaling", "config": {"scale": 1.0, "mode": "fan_avg", "seed": null, "distribution": "uniform"}}, "kernel_constraint": null, "dilation_rate": [1], "bias_constraint": null, "strides": [1], "bias_regularizer": null, "padding": "valid", "kernel_size": [2], "trainable": true, "activation": "relu", "name": "conv1d_1"}}, "MaxPooling1D": {"class_name": "MaxPooling1D", "config": {"pool_size": [2], "padding": "valid", "trainable": true, "strides": [2], "name": "max_pooling1d_1"}}, "Embedding": {"class_name": "Embedding", "config": {"activity_regularizer": null, "output_dim": 128, "input_length": 20, "embeddings_initializer": {"class_name": "RandomUniform", "config": {"maxval": 0.05, "seed": null, "minval": -0.05}}, "dtype": "float32", "batch_input_shape": [null, 20], "embeddings_constraint": null, "input_dim": 1000, "embeddings_regularizer": null, "mask_zero": false, "trainable": false, "name": "embedding_1"}}, "InputLayer": {"class_name": "InputLayer", "config": {"batch_input_shape": [null, 20], "name": "input_1", "dtype": "int32", "sparse": false}, "inbound_nodes": []}, "Flatten": {"class_name": "Flatten", "config": {"data_format": "channels_last", "trainable": true, "name": "flatten_1"}}, "input_layers": [["input", 0, 0]]}